artifacts/models/dqn_cartpole.pth (torch, 72785 bytes, 6 tensors)

net.0.weight f4 [128, 4]
0.26594302 0.55246574 -0.5725126 0.52180886 -0.004271874 0.03306828 1.4467468 0.2716932
0.5351962 -0.18008496 1.7491001 0.04781457 0.4469781 0.08216266 -0.097495876 0.0791982
0.35662127 0.073197804 -0.83224714 0.2298728 -0.5275346 0.17196733 2.1005874 0.43468988
-0.4047504 -0.20246503 -0.5766951 -0.18865131 0.6274265 -0.6748379 0.53031725 -0.4429879
0.306836 0.068027325 -0.74386275 0.5155655 -0.0023552717 0.31195182 -0.18533497 -0.14223795
0.34198797 -0.0020333352 1.252606 0.3513901 0.2584304 -0.1709121 0.2134519 0.015789786
0.20593742 -0.2848981 -1.2840469 -0.1445391 -0.58890396 0.52319854 0.3213605 -0.3177873
0.11215746 -0.0937538 0.94841576 -0.47126406 -0.02682086 -0.1951391 -0.598817 -0.11472536
0.20898983 -0.18353558 1.3911123 -0.40181386 -0.50855756 -0.23050876 0.54325414 -0.066645674
0.3032225 -0.36721787 -1.0309786 -0.15905453 -0.55281985 0.21916553 1.6641794 0.27405828
-0.28236625 -0.27174637 1.4128163 -0.06773316 0.35079905 -0.23194098 0.65827554 -0.3288931
-0.21292855 0.16570908 -0.07762747 -0.10518605 0.06625096 -0.0005377939 -1.5981928 -0.14294355
0.8165901 -0.22790286 -1.4312083 -0.36823234 -0.5636713 0.035263494 0.4775898 -0.48016322
0.17994757 -0.09716217 -1.8323107 -0.31857237 -0.37623447 -0.1966342 0.60402304 0.124731526
0.17240088 -0.55857027 -0.043494314 -0.28727248 0.24611683 -0.6565345 -1.1958915 -0.053623423
0.054925524 -0.027120635 -1.7142112 -0.19629194 -0.34734175 -0.40002653 -0.25336266 -0.36913162
0.2719845 -0.15249489 0.72452307 0.21010064 -0.2946526 0.40853992 0.14483604 -0.3797483
-0.463639 -0.4752429 -0.19494264 -0.14495856 0.25575575 -0.41262537 0.5343273 -0.28515914
-0.18771891 0.17841165 0.49692273 0.39208573 0.6499848 -0.53282464 0.0122544095 -0.0023865297
0.021358047 -0.5248198 0.8651099 -0.33838326 0.24722457 0.10330141 0.3084714 -0.25107577
0.30143303 -0.023208112 -0.796477 -0.46554732 -0.060555868 -0.07714893 -0.36763173 0.5328265
0.018183138 -0.28317288 -0.69824827 0.13006076 0.41906786 -0.08091044 -1.0864865 -0.3443185
-0.4407765 0.12663563 1.1468183 -0.5381967 0.19096494 0.14296193 0.12406487 -0.15942939
0.36884037 0.21556684 0.22280733 0.00726011 -0.15225339 0.041851494 -0.39670247 -0.14396429
0.21358632 0.33229586 -0.3316883 -0.07624614 -0.02181984 -0.04374846 0.38354966 0.27192977
-0.6947436 0.07950893 2.2962255 0.25753668 0.13391754 -0.12702659 -1.8793958 -0.27276754
-0.053759877 0.008945005 1.9195422 0.24559467 -0.3382031 0.019241853 1.7458009 0.3826826
0.07232875 -0.12948537 0.20685762 -0.19044077 -0.49820653 0.26073232 -1.0696543 -0.0972912
-0.59026486 0.2547896 0.38845646 0.14582212 -0.4941357 -0.35483572 -0.44896558 0.4435836
0.19284397 0.3767387 0.11925465 0.2881469 0.1396598 -0.072776504 -2.3165414 -0.37081644
0.5732794 -0.1811572 -1.0858804 -0.30405316 -0.24887887 -0.19802894 -0.93851554 0.2555519
-0.22746694 0.117720105 -0.36822233 -0.25444144 0.05793697 -0.03380753 -2.035612 -0.28360632
00000000: af29 883e 656e 0d3f 3090 12bf 4495 053f
00000010: 14fb 8bbb 9b72 073d 002f b93f 5f1b 8b3e
00000020: 9e02 093f 3168 38be 83e2 df3f 36d9 433d
00000030: 50da e43e e644 a83d ebab c7bd aa32 a23d
00000040: 1097 b63e bbe8 953d 260e 55bf c663 6b3e
00000050: 820c 07bf 3418 303e 0670 0640 ac8f de3e
00000060: 723b cfbe fe52 4fbe 4aa2 13bf cf2d 41be
00000070: 069f 203f 2dc2 2cbf dfc2 073f 4fcf e2be
00000080: 9c19 9d3e e951 8b3d ca6d 3ebf 1afc 033f
00000090: e75a 1abb 26b8 9f3e 73c8 3dbe d3a6 11be
000000a0: 0c19 af3e b441 05bb 6555 a03f 67e9 b33e
000000b0: fd50 843e 9503 2fbe 2393 5a3e 9559 813c
000000c0: 42e1 523e 2ade 91be a65b a4bf 0f02 14be
000000d0: 69c2 16bf 57f0 053f 5d89 a43e 04b5 a2be
000000e0: cfb2 e53d fe01 c0bd 60cb 723f 8649 f1be
000000f0: 6cb7 dbbc 8bd2 47be 124c 19bf 21f5 eabd
00000100: 6e01 563e c0f0 3bbe f80f b23f 8cba cdbe
00000110: d430 02bf 7d0a 6cbe b412 0b3f 877d 88bd
00000120: fb3f 9b3e fb03 bcbe 1bf7 83bf 31df 22be
00000130: 9a85 0dbf ee6c 603e d503 d53f 5e51 8c3e
00000140: 4f92 90be 5722 8bbe 2ad7 b43f afb7 8abd
00000150: ef9b b33e f081 6dbe bf84 283f ad64 a8be
00000160: f109 5abe a4af 293e 27fb 9ebd c96b d7bd
00000170: 95ae 873d bdfa 0cba 9591 ccbf cb5f 12be
00000180: 0c0c 513f 5e5f 69be d531 b7bf f388 bcbe
00000190: c34c 10bf 7470 103d a686 f43e f4d7 f5be
000001a0: 2d44 383e f6fc c6bd 2889 eabf eb1b a3be
000001b0: cea1 c0be 7a5a 49be 41a1 1a3f 3e73 ff3d
000001c0: db89 303e 76fe 0ebf 1827 32bd 6115 93be
000001d0: 0d06 7c3e a512 28bf f912 99bf 3ca4 5bbd
000001e0: 96f9 603d 182c debc 466b dbbf c100 49be
000001f0: c7d6 b1be 47d0 ccbe c0b8 81be d2fe bcbe
00000200: 8d41 8b3e 9f27 1cbe 587a 393f 9f24 573e
00000210: b5dc 96be 252c d13e e64f 143e 5f6e c2be
00000220: 1762 edbe 0a53 f3be 0b9f 47be 0470 14be
00000230: 6bf2 823e a243 d3be adc9 083f 6100 92be
00000240: 6339 40be 8bb1 363e a86c fe3e 76bf c83e
00000250: 6765 263f 3267 08bf b8c6 483c 5367 1cbb
00000260: 12f7 ae3c 975a 06bf d877 5d3f 9240 adbe
00000270: 7028 7d3e b18f d33d f7ef 9d3e 018d 80be
00000280: 6e55 9a3e f01e bebc ebe5 4bbf 385c eebe
00000290: 6e09 78bd 4200 9ebd 3a3a bcbe 5167 083f
000002a0: cef4 943c 09fc 90be 66c0 32bf a62e 053e
000002b0: 1090 d63e 5fb4 a5bd fd11 8bbf 844a b0be
000002c0: 75ad e1be c5ac 013e f1ca 923f 42c7 09bf
000002d0: 508c 433e 9d64 123e b915 fe3d 7541 23be
000002e0: a5d8 bc3e 8ebd 5c3e 9b27 643e 38e6 ed3b
000002f0: 50e8 1bbe 796c 2b3d 961c cbbe 606b 13be
00000300: 5fb6 5a3e af22 aa3e 0dd3 a9be f026 9cbd
00000310: 85bf b2bc 9631 33bd 9f60 c43e 613a 8b3e
00000320: b7da 31bf 94d5 a23d 5cf5 1240 d9db 833e
00000330: ae21 093e 4213 02be 0b90 f0bf 30a8 8bbe
00000340: 5133 5cbd 128e 123c 8fb3 f53f 2b7d 7b3e
00000350: f528 adbe 17a1 9d3c 6776 df3f f9ee c33e
00000360: 1821 943d d097 04be 7cd2 533e e802 43be
00000370: ed14 ffbe b57e 853e 6fea 88bf 9c40 c7bd
00000380: 991b 17bf c873 823e c4e3 c63e 6552 153e
00000390: 5bff fcbe 07ad b5be d1de e5be 641d e33e
000003a0: e478 453e e5e3 c03e c83b f43d fe87 933e
000003b0: fb02 0f3e d90b 95bd 3742 14c0 a7db bdbe
000003c0: 70c2 123f 4681 39be 21fe 8abf dbac 9bbe
000003d0: 1ada 7ebe 19c8 4abe 8e42 70bf b3d7 823e
000003e0: 18ed 68be 3d17 f13d a387 bcbe 2646 82be
000003f0: 514f 6d3d c479 0abd 7847 02c0 d934 91be

net.0.bias f4 [128]
0.20822313 -0.35642603 -0.3265915 -0.74871 0.47649872 -0.68211436 0.47562224 0.045374982
0.060408134 0.38951868 -0.052663546 0.46173957 0.5052917 -0.37366736 0.1672979 0.3484506
0.10497039 0.08350993 0.509892 -0.43267614 -0.10458059 0.48906496 0.4875605 -0.048155356
-0.34904933 -0.041514743 -0.4162613 0.5109863 -0.40101296 -0.045236185 -0.33462352 -0.13523641
0.58932185 0.19520766 0.29387692 0.48865077 0.54025775 -0.29425064 -0.039002832 0.3380601
-0.29357874 0.34274575 -0.18763688 -0.57924986 0.1699972 0.12673153 0.24818218 0.61996174
0.46673703 0.5996487 0.16814882 -0.4559736 -0.39754122 -0.51668626 -0.44062418 -0.33789426
-0.5444791 -0.82356685 -0.7084509 -0.5199497 -0.31374818 0.30408606 0.62427086 -0.4268998
-0.32783493 0.36842832 -0.35289332 -0.30076408 0.31809643 -0.78708947 0.13551123 0.58090687
0.41243014 0.08906571 -0.26660267 -0.30026165 0.10672067 0.33620855 0.42309764 0.5304144
-0.41631266 -0.1632485 -0.33641624 -0.7736327 -0.120746985 -0.47171867 0.3836111 0.16424468
-0.19267987 0.37140095 -0.9032724 -0.40332362 -0.44540003 -0.38415068 -0.3417431 -0.32618785
0.5857545 0.62777174 0.43195045 -0.39903393 -0.42275295 0.532561 0.35334104 0.0554308
0.06406515 -0.6521462 -0.30134395 0.6071057 -0.11593292 -0.09522375 -0.44377166 -0.38717425
0.009042563 -0.5939686 -0.014523951 0.28643265 -0.48908865 0.21624814 -0.53604585 -0.4520387
0.31738582 0.40384763 -0.18490247 -0.2278704 -0.9990552 -0.39997473 -0.48272142 -0.26774895
00000000: 7238 553e 797d b6be 0037 a7be 75ab 3fbf
00000010: a4f7 f33e 0c9f 2ebf c284 f33e 1edb 393d
00000020: 856e 773d fe6e c73e bbb5 57bd 2169 ec3e
00000030: cc5a 013f 5451 bfbe 2450 2b3e 1e68 b23e
00000040: b7fa d63d 4107 ab3d 4888 023f ba87 ddbe
00000050: 592e d6bd b966 fa3e 88a1 f93e 8d3e 45bd
00000060: 98b6 b2be 5d0b 2abd 3320 d5be 00d0 023f
00000070: 9251 cdbe 9449 39bd c653 abbe 6a7b 0abe
00000080: ccdd 163f 84e4 473e 0977 963e 6f30 fa3e
00000090: 554e 0a3f 05a8 96be 6fc1 1fbd 3716 ad3e
000000a0: f44f 96be 5f7c af3e e223 40be b849 14bf
000000b0: bf13 2e3e e9c5 013e 7823 7e3e d0b5 1e3f
000000c0: 28f8 ee3e 9482 193f 342f 2c3e 5f75 e9be
000000d0: 868a cbbe 8d45 04bf 7e99 e1be 7a00 adbe
000000e0: fb62 0bbf 47d5 52bf 0a5d 35bf 6c1b 05bf
000000f0: 9aa3 a0be 2bb1 9b3e 37d0 1f3f 9c92 dabe
00000100: fbd9 a7be a3a2 bc3e 6fae b4be c0fd 99be
00000110: 89dd a23e b27e 49bf 75c3 0a3e 50b6 143f
00000120: 0b2a d33e 1568 b63d 2580 88be e5bb 99be
00000130: 5e90 da3d 8723 ac3e 41a0 d83e 3dc9 073f
00000140: ef26 d5be 9d2a 27be c03e acbe cb0c 46bf
00000150: 324a f7bd 1c85 f1be ad68 c43e c22f 283e
00000160: df4d 45be 4428 be3e dc3c 67bf 6f80 cebe
00000170: 790b e4be 66af c4be f4f8 aebe 1802 a7be
00000180: 02f4 153f a6b5 203f 9c28 dd3e 2d4e ccbe
00000190: 1373 d8be eb55 083f 1ee9 b43e 680b 633d
000001a0: 9734 833d 0ef3 26bf c149 9abe 476b 1b3f
000001b0: 3d6e edbd ab04 c3bd 0a36 e3be b43b c6be
000001c0: 4227 143c 530e 18bf def5 6dbc 4da7 923e
000001d0: d469 fabe 2770 5d3e 4d3a 09bf 9e71 e7be
000001e0: 6580 a23e 1ec5 ce3e 1357 3dbe dc56 69be
000001f0: 15c2 7fbf 7dc9 ccbe 4327 f7be 6416 89be

net.2.weight f4 [128, 128]
0.1595653 -0.13634181 -0.091833495 -0.35415205 0.0009988798 0.52297413 0.09671065 0.07254062
0.055421844 0.080921985 0.1002497 0.048441492 0.19008683 -0.03665701 0.1581052 0.07592516
0.09107615 0.02840116 0.035790537 -0.32787538 -0.19649738 0.15789989 0.07677647 0.20449482
-0.48790982 0.0011201098 -1.3620707 0.016124427 -0.28340718 -0.23986839 -0.9562497 0.06284841
0.16037358 0.13155672 0.002329828 0.17933771 0.08038635 0.02093761 0.052913584 0.08873979
0.02717474 0.05278784 -0.21502897 -0.53779817 0.12883452 0.11939956 0.020078968 0.11842307
0.039840642 0.06941287 0.0656099 -1.7992842 -1.0562165 0.13996483 0.017293371 -0.2282201
-0.23054065 0.06747225 -0.39892688 -1.1891711 -0.9828001 -0.069062054 0.13648306 -0.8731099
0.1759593 0.024724798 -0.018572975 0.39846814 0.019166036 -0.1719369 -0.041956864 0.14336829
0.1729197 -0.029900657 -1.4151866 -0.8687378 0.28871053 0.009092013 0.086988404 0.09155215
-0.5102753 -0.07587869 -0.30648553 -0.35414514 -0.18378931 -0.7291543 0.1144626 -0.07306535
-0.6565789 -0.023560693 -1.0066404 -0.34164166 -0.3825513 -1.5230136 -0.053940207 0.072462186
0.10265746 0.06983186 0.1717213 -0.03951176 0.053741526 0.04687244 0.139666 0.14091048
-0.046220284 -0.002788708 -0.06669453 0.077564634 -0.2203979 0.0061330018 -0.21290989 0.12938601
0.18310964 0.06777894 0.114365555 0.12260821 0.00069493055 0.14564177 -0.27032706 0.030985968
0.03615175 0.017258452 -0.047662668 -0.035942614 -0.60251933 0.113387465 -0.17850296 -0.31891868
0.04225672 -0.02114053 -0.19376482 -0.14842886 -0.0035398449 -0.24640018 -0.013004513 0.063109875
-0.030999284 0.039555706 0.074183084 0.08828399 0.03101638 0.06904177 0.05477307 -0.05756112
0.035317928 0.0731399 0.023877501 -0.3899029 -0.07352615 0.13583927 0.012734247 0.1136744
0.07538409 -0.09408796 -0.4297002 -0.0032175744 -0.500412 -0.011607248 -0.8308599 0.16173865
0.070740126 0.00024424843 0.0034726146 0.114461936 0.09978834 -0.15573928 0.1262332 0.08045322
0.22047037 0.12080105 -0.089651324 -0.06978643 0.027820518 0.05024091 0.0941858 0.02645196
0.10028484 0.16614908 0.14262445 0.6214283 -0.44211623 0.14103138 -0.05022879 0.046163335
-0.26464126 0.07597872 -0.23159258 -0.6374114 0.006040555 0.03722259 0.09612423 -0.6639192
-0.0144829275 0.022952234 -0.053261288 0.050451357 0.00065626437 0.018782748 0.023160614 0.057662655
0.11534709 -0.109668285 -0.9273817 -1.1559923 0.20032613 0.10401146 0.1330871 0.04186618
0.12445917 0.041313943 -0.3855061 -0.5494466 -0.22011524 0.29408818 0.036508314 0.25749642
-0.2005865 0.14658256 -0.76208 0.11303505 0.3668169 -1.0342997 0.1680305 -0.016621834
0.03060482 0.11486945 0.102116995 0.13958187 0.18991172 -0.079312064 -0.044258714 0.13615306
-0.050312568 0.18679789 0.07118551 0.043256383 -0.20955113 -0.050487377 0.24328622 0.004886039
0.35709614 1.0525268 0.018287076 0.07444167 0.05538819 0.16877747 0.14346924 0.0022442949
-0.00906427 0.09227179 -0.04167078 -0.0013910339 0.2339207 0.051966872 0.1508439 -0.05358209
00000000: 1665 233e 309d 0bbe 3313 bcbd 6b53 b5be
00000010: d8ec 823a a2e1 053f 3c10 c63d 2d90 943d
00000020: 0402 633d 6dba a53d b74f cd3d 966a 463d
00000030: 1fa6 423e a925 16bd 54e6 213e a67e 9b3d
00000040: 2286 ba3d 8da9 e83c 1999 123d 48df a7be
00000050: 9c36 49be 82b0 213e fb3c 9d3d 1767 513e
00000060: 51cf f9be a6d0 923a 5558 aebf 6017 843c
00000070: bf1a 91be 0fa0 75be c8cc 74bf abb6 803d
00000080: f938 243e ceb6 063e 07b0 183b 4ea4 373e
00000090: 99a1 a43d 5a85 ab3c eabb 583d 35bd b53d
000000a0: 8f9d de3c 1038 583d 8e30 5cbe 24ad 09bf
000000b0: 32ed 033e c287 f43d a67c a43c cb87 f23d
000000c0: f12f 233d 5628 8e3d 7c5e 863d f24e e6bf
000000d0: 1a32 87bf f152 0f3e d4aa 8d3c 88b2 69be
000000e0: d912 6cbe e42e 8a3d 2540 ccbe c236 98bf
000000f0: ca98 7bbf 6870 8dbd 37c2 0b3e 2184 5fbf
00000100: ad2e 343e a98b ca3c 5a26 98bc 0404 cc3e
00000110: 1702 9d3c 3a10 30be f6da 2bbd 23cf 123e
00000120: dd11 313e 39f2 f4bc d624 b5bf 9a65 5ebf
00000130: ded1 933e abf6 143c fa26 b23d b27f bb3d
00000140: 67a1 02bf 4966 9bbd aceb 9cbe 8352 b5be
00000150: 4433 3cbe dba9 3abf 5e6b ea3d 49a3 95bd
00000160: 8e15 28bf 5b02 c1bc 98d9 80bf a8eb aebe
00000170: c4dd c3be 1cf2 c2bf 68f0 5cbd 0e67 943d
00000180: 133e d23d 0204 8f3d b5d7 2f3e 15d7 21bd
00000190: 1320 5c3d 51fd 3f3d 9b04 0f3e d64a 103e
000001a0: 7b51 3dbd c2c2 36bb 2497 88bd 35da 9e3d
000001b0: fdaf 61be 59f7 c83b 0d05 5abe c47d 043e
000001c0: 1881 3b3e afcf 8a3d 7d38 ea3d 031a fb3d
000001d0: 002c 363a 1e23 153e 4f68 8abe 49d6 fd3c
000001e0: db13 143d 9961 8d3c ee39 43bd 9038 13bd
000001f0: b53e 1abf b037 e83d 7bc9 36be 4f49 a3be
00000200: 6215 2d3d e82e adbc 496a 46be bcfd 17be
00000210: befc 67bb 5450 7cbe e210 55bc c03f 813d
00000220: 36f2 fdbc 2a05 223d 4ded 973d 3dce b43d
00000230: 1016 fe3c c665 8d3d ba59 603d 35c5 6bbd
00000240: 88a9 103d 5fca 953d c09a c33c 5aa1 c7be
00000250: e194 96bd 7319 0b3e 4ea3 503c 20ce e83d
00000260: f962 9a3d 30b1 c0bd aa01 dcbe f1dd 52bb
00000270: 001b 00bf 542c 3ebc 3cb3 54bf d19e 253e
00000280: 33e0 903d 780e 8039 ce94 633b 056b ea3d
00000290: d45d cc3d 1e7a 1fbe 4743 013e a8c4 a43d
000002a0: fcc2 613e 8a66 f73d 1d9b b7bd 30ec 8ebd
000002b0: dbe7 e33c 6ac9 4d3d 7ce4 c03d c8b1 d83c
000002c0: 2362 cd3d fc22 2a3e 250c 123e ed15 1f3f
000002d0: 0f5d e2be 886a 103e b4bc 4dbd c415 3d3d
000002e0: 0f7f 87be bb9a 9b3d 9b26 6dbe 652d 23bf
000002f0: d9ef c53b b776 183d c8dc c43d 9cf6 29bf
00000300: cd49 6dbc 5306 bc3c 8228 5abd 15a6 4e3d
00000310: 2809 2c3a 47de 993c 54bb bd3c ad2f 6c3d
00000320: 183b ec3d c499 e0bd e368 6dbf 8ef7 93bf
00000330: 4b22 4d3e f603 d53d fc47 083e df7b 2b3d
00000340: 73e4 fe3d cf38 293d 0e61 c5be 88a8 0cbf
00000350: e465 61be ba92 963e be89 153d 92d6 833e
00000360: 8c66 4dbe bd19 163e ad17 43bf ec7e e73d
00000370: 6dcf bb3e ef63 84bf 3010 2c3e 832a 88bc
00000380: f6b6 fa3c ad40 eb3d b722 d13d 8dee 0e3e
00000390: 3878 423e 5d6e a2bd a048 35bd b56b 0b3e
000003a0: 8d14 4ebd f247 3f3e b5c9 913d 9b2d 313d
000003b0: 9294 56be dacb 4ebd 0620 793e 111b a03b
000003c0: 4ed5 b63e 33b9 863f c7ce 953c e074 983d
000003d0: bade 623d 00d4 2c3e 9ae9 123e 0515 133b
000003e0: 4e82 14bc fef8 bc3d fbae 2abd 5a53 b6ba
000003f0: e888 6f3e 37db 543d d376 1a3e e578 5bbd

net.2.bias f4 [128]
0.13537285 0.08054149 0.09627425 -0.033079855 0.004045415 -0.009981658 0.17074327 0.24403161
-0.05411014 0.028907562 -0.031084435 -0.06135073 0.104006484 -0.06110971 0.16169886 0.16048212
0.14538094 0.105264276 0.15148376 0.13416559 0.06794628 0.10952147 -0.07584461 0.10452775
0.0033664727 0.21741517 0.19454561 -0.0063984273 0.19096196 0.025322739 -0.09938238 0.009034945
-0.09193793 0.09341805 -0.043121595 0.058661822 0.12423073 -0.0471736 0.11638921 0.04696613
-0.005604245 0.12375153 -0.03138193 0.17722759 -0.015903927 -0.009857546 0.19603837 -0.112544835
0.055088904 -0.08304053 0.15417366 0.1961911 0.07619748 0.1744286 0.21889412 -0.04137744
0.24302828 -0.073485635 0.19899261 0.06258666 0.17199263 0.1355175 0.20022315 0.10208569
0.23257828 0.10791919 0.06527555 0.17049858 -0.00096457475 0.2249127 -0.006055598 0.08957803
0.13797373 -0.008883933 -0.016591746 -0.085526936 0.077384196 0.17164019 0.13247442 0.12490844
-0.017468046 0.23477903 0.035376668 0.17623058 0.20331535 0.04356751 0.039001763 -0.083576724
-0.07311136 0.13467637 0.2681935 0.039583 0.19655845 0.03950199 -0.112186484 -0.11417737
0.017438732 -0.03591221 0.023098683 0.09887979 0.19300434 -0.077107236 0.20223187 0.19522087
0.08779704 0.056812406 0.04852187 -0.052930895 0.09634844 0.23535152 -0.03761527 0.19650388
0.070776254 0.028345 0.049360693 0.22914694 0.0628328 0.02185199 -0.041070703 0.029259356
0.021618506 0.18228339 0.031695034 0.11251763 0.13430433 0.21820104 0.23247787 0.14729308
00000000: 2e9f 0a3e f0f2 a43d 6f2b c53d be7e 07bd
00000010: 678f 843b 1c8a 23bc 53d7 2e3e 6ce3 793e
00000020: 98a2 5dbd 8dcf ec3c c9a4 febc e74a 7bbd
00000030: 5a01 d53d 2d4e 7abd 6394 253e 6d55 243e
00000040: bede 143e cc94 d73d 8f1e 1b3e b462 093e
00000050: 6b27 8b3d cb4c e03d 6b54 9bbd a512 d63d
00000060: 0aa0 5c3b 15a2 5e3e f736 473e e6a9 d1bb
00000070: 888b 433e a271 cf3c fd88 cbbd 4e07 143c
00000080: f449 bcbd f651 bf3d 45a0 30bd 6147 703d
00000090: ae6c fe3d 1b39 41bd 775d ee3d 8f5f 403d
000000a0: d0a3 b7bb 7171 fd3d 578a 00bd 267b 353e
000000b0: f448 82bc 8b81 21bc 48be 483e e87d e6bd
000000c0: e7a4 613d 2711 aabd b3df 1d3e 52e6 483e
000000d0: 6d0d 9c3d 699d 323e c825 603e 647b 29bd
000000e0: 68dc 783e a37f 96bd b8c4 4b3e 6f2d 803d
000000f0: d61e 303e 19c5 0a3e 4c07 4d3e 4d12 d13d
00000100: 0029 6e3e bc04 dd3d 30af 853d 2e97 2e3e
00000110: 84db 7cba 844f 663e 0a6e c6bb b074 b73d
00000120: fc48 0d3e ea8d 11bc 6aeb 87bc bf28 afbd
00000130: 9b7b 9e3d 72c2 2f3e 60a7 073e ffcf ff3d
00000140: 2619 8fbc ea69 703e 20e7 103d ca75 343e
00000150: e631 503e d873 323d 50c0 1f3d 462a abbd
00000160: 69bb 95bd 9ae8 093e a950 893e c921 223d
00000170: 9e46 493e d7cc 213d 07c2 e5bd d3d5 e9bd
00000180: acdb 8e3c ae18 13bd 7339 bd3c 7d81 ca3d
00000190: eea2 453e 66ea 9dbd df15 4f3e fbe7 473e
000001a0: efce b33d 20b4 683d debe 463d 11ce 58bd
000001b0: 5552 c53d fdff 703e 7812 1abd 5038 493e
000001c0: 24f3 903d c633 e83c 702e 4a3d 7fa5 6a3e
000001d0: 7cae 803d f202 b33c c139 28bd 51b1 ef3c
000001e0: 4b19 b13c 7fa8 3a3e a7d2 013d a56f e63d
000001f0: 1387 093e 1870 5f3e ae0e 6e3e ffd3 163e

net.4.weight f4 [2, 128]
0.49038786 -0.078537956 -0.14977702 0.057275437 -0.20651753 0.096263304 0.12029386 -0.1494343
-0.17942818 0.030232271 0.023826975 -2.1555548 0.6458278 -0.05281668 0.55393344 0.62387127
0.38908738 0.99031913 0.20217422 -0.03613016 0.59761494 0.5799653 -0.039499603 -0.08542908
-0.020240901 0.110954754 0.31002405 -0.01813158 0.5760218 -0.062200766 0.005583346 0.13652912
-0.05862778 0.2042686 1.4898398 0.061073676 0.16623153 -0.042890348 0.16027433 -0.014504869
0.016814962 1.1849097 -0.10024965 0.59780556 -0.00869529 1.525359 0.6195239 -1.9131732
-0.073710494 -0.03909627 0.9970645 0.9788033 0.022998728 0.3922504 0.876653 -0.038832933
0.122091755 0.08440933 0.6909537 0.53224903 0.5930834 -0.1490822 0.19034216 0.64918584
1.0533029 0.07246781 0.18849377 0.42844963 -0.0665398 -0.85909295 -2.9645226 0.2554893
-0.19067903 -0.0018195234 -0.053360768 -0.0393584 0.58681715 0.61650586 -0.20354937 -2.1964383
-2.157668 -0.20810795 -0.069688134 0.65386945 0.5430241 0.5108272 -1.0308069 -0.056620274
0.08472393 -0.3242984 -0.36607343 -0.06519076 0.58192676 -0.0020282676 -0.02169575 0.036050357
-0.04007724 0.016285742 0.033636972 0.7929367 0.57531756 -0.010950513 0.16099375 0.50108165
0.57386595 0.21219026 -1.4991219 0.029802015 0.47205028 0.66549826 0.024657037 -0.93037033
0.14694469 0.051453125 0.4089761 0.34967035 -0.91640633 -0.0035355869 -0.07101059 -0.034802843
0.1328576 0.51127535 0.10050719 0.3169801 -0.68622905 -0.43006662 0.11401357 0.53327024
0.09750005 0.2182446 0.5468967 -0.07425237 2.6303768 0.21151498 0.7008071 0.5401969
-2.2043388 -0.06396126 0.09633075 0.9320159 0.66015583 -0.021217508 -0.19102748 0.08475572
0.17488666 -0.020115191 0.3244196 1.1576421 0.03194662 0.11178815 0.013606065 0.22197053
-0.02557471 0.7504552 0.5020604 0.047175888 -0.669992 0.06207824 0.07449401 0.16223156
0.002667136 0.6654243 -2.5022511 -0.064896345 0.18816485 -0.06944494 0.37512696 -0.04841082
-0.04213845 -0.2230784 -0.039706733 -0.46181363 -0.03715262 -2.2650812 0.015086468 0.71132225
0.06641881 -0.08054627 -0.97480834 0.20283294 0.30443174 0.16153716 0.35141075 0.002618367
0.7525978 -0.012035438 0.6128226 -0.8060753 -0.014483042 0.115246914 0.6962625 -0.3505596
-0.07553504 0.17700315 0.20184058 0.13630575 -0.02143751 0.71214586 -1.8397737 0.20780733
0.5919868 -0.06604487 0.053931314 0.081855245 0.085514426 -0.45531878 0.5651566 1.0232595
-0.6561293 0.52775705 0.09604215 0.08300653 -0.8359331 0.0808012 -3.003294 -0.055726
-0.02882415 0.50443894 0.5508129 0.03446465 0.7250195 -0.074695624 -0.024092538 -0.07749967
-0.066536434 -0.044541072 -0.058827367 -1.3043959 0.04750675 -0.04119828 0.6780006 0.93751127
0.074168146 -0.45990118 -1.5909665 -0.06956575 0.16878958 0.58721006 -0.07523094 0.27795997
0.14473549 -0.098037526 0.16200517 0.8820307 0.72718227 -0.03001244 0.0514094 0.031016842
0.15143175 0.046496864 -0.050812665 1.0244884 0.24798962 1.1144793 0.77496976 0.16757064
00000000: 1e14 fb3e 82d8 a0bd 265f 19be a699 6a3d
00000010: 5579 53be b225 c53d a15c f63d 4e05 19be
00000020: 05bc 37be aba9 f73c ca30 c33c 9cf4 09c0
00000030: f854 253f 4e56 58bd 95ce 0d3f 07b6 1f3f
00000040: 7636 c73e 8e85 7d3f c206 4f3e 38fd 13bd
00000050: 4bfd 183f 9b78 143f 56ca 21bd 71f5 aebd
00000060: 3fd0 a5bc 3f3c e33d 79bb 9e3e ae88 94bc
00000070: 2a76 133f 3bc6 7ebd 80f4 b63b 4ace 0b3e
00000080: af23 70bd ca2b 513e 12b3 be3f 6428 7a3d
00000090: 9938 2a3e caad 2fbd f41e 243e d4a5 6dbc
000000a0: 88bf 893c 1fab 973f b04f cdbd c909 193f
000000b0: b176 0ebc f73e c33f 1e99 1e3f dce2 f4bf
000000c0: 87f5 96bd 6923 20bd 9e3f 7f3f da92 7a3f
000000d0: d467 bc3c 0bd5 c83e 556c 603f 480f 1fbd
000000e0: 3e0b fa3d ccde ac3d 57e2 303f 7941 083f
000000f0: 50d4 173f 01a9 18be 0ee9 423e 0b31 263f
00000100: a1d2 863f 016a 943d 8304 413e c05d db3e
00000110: 0546 88bd 84ed 5bbf bdba 3dc0 7ecf 823e
00000120: 5d41 43be 137d eeba d290 5abd 4636 21bd
00000130: a639 163f 54d3 1d3f 3f6f 50be 7292 0cc0
00000140: 3c17 0ac0 401a 55be a7b8 8ebd fd63 273f
00000150: a103 0b3f 92c5 023f 7bf1 83bf a9ea 67bd
00000160: bd83 ad3d 710a a6be fa6d bbbe bc82 85bd
00000170: 27f9 143f afec 04bb 49bb b1bc 8aa9 133d
00000180: 0828 24bd ad69 853c ecc6 093d e6fd 4a3f
00000190: 0348 133f c869 33bc 8cdb 243e e346 003f
000001a0: e1e8 123f 6748 593e 3ae3 bfbf 5b23 f43c
000001b0: 93b0 f13e 185e 2a3f 8efd c93c c02c 6ebf
000001c0: ab78 163e 83c0 523d 5165 d13e fe07 b33e
000001d0: 9b99 6abf 4eb5 67bb 006e 91bd 6d8d 0ebd
000001e0: d30b 083e f1e2 023f b7d6 cd3d 374b a23e
000001f0: b5ac 2fbf b131 dcbe f27f e93d 6684 083f
00000200: 1bae c73d 837b 5f3e 6c01 0c3f a011 98bd
00000210: 1858 2840 6297 583e 1868 333f 584a 0a3f
00000220: e313 0dc0 1ffe 82bd 0e49 c53d 9898 6e3f
00000230: f9ff 283f 57d0 adbc b59c 43be 6894 ad3d
00000240: 7d15 333e 9dc8 a4bc 531a a63e 9e2d 943f
00000250: 76da 023d 30f1 e43d f9eb 5e3c 3e4c 633e
00000260: 0e82 d1bc d51d 403f 0887 003f 813b 413d
00000270: 9984 2bbf c145 7e3d 5190 983d 0820 263e
00000280: 1ecb 2e3b 3f59 2a3f e224 20c0 60e8 84bd
00000290: 49ae 403e 2639 8ebd a410 c03e 6d4a 46bd
000002a0: 5e99 2cbd aa6e 64be 87a3 22bd d672 ecbe
000002b0: 582d 18bd 17f7 10c0 3c2d 773c 3719 363f
000002c0: 9606 883d 71f5 a4bd 0a8d 79bf 70b3 4f3e
000002d0: 7ade 9b3e ff69 253e 1cec b33e e998 2b3b
000002e0: 40aa 403f 4930 45bc f1e1 1c3f f35a 4ebf
000002f0: 484a 6dbc 9306 ec3d 423e 323f 8c7c b3be
00000300: 1db2 9abd 5040 353e 4caf 4e3e bc93 0b3e
00000310: b89d afbc 314f 363f b47d ebbf 72cb 543e
00000320: 728c 173f 8842 87bd 15e7 5c3d b9a3 a73d
00000330: 3022 af3d 8b1f e9be 1aae 103f 2bfa 823f
00000340: 17f8 27bf 161b 073f bfb1 c43d 54ff a93d
00000350: b6ff 55bf 197b a53d f835 40c0 f240 64bd
00000360: a020 ecbc e922 013f 1302 0d3f ce2a 0d3d
00000370: e19a 393f 05fa 98bd b75d c5bc 26b8 9ebd
00000380: 4144 88bd b370 36bd f7f4 70bd 72f6 a6bf
00000390: 7096 423d 87bf 28bd 7391 2d3f bd00 703f
000003a0: 78e5 973d 2b78 ebbe caa4 cbbf 7d78 8ebd
000003b0: 2dd7 2c3e 6653 163f ae12 9abd c550 8e3e
000003c0: 8a35 143e e6c7 c8bd afe4 253e c4cc 613f
000003d0: 9e28 3a3f a6dc f5bc aa92 523d 0817 fe3c
000003e0: ed10 1b3e 7f73 3e3d f120 50bd 7022 833f
000003f0: fef0 7d3e 42a7 8e3f 6b64 463f a397 2b3e

net.4.bias f4 [2]
-0.03343273 0.10048338
00000000: c2f0 08bd 3bca cd3d
