artifacts/models/dqn_cartpole.pth (torch, 72785 bytes, 6 tensors)

net.0.weight f4 [128, 4]
0	0x3e989a62	0.29805285
1	0x3f15d87d	0.5853346
2	0xbf13bfe2	-0.57714665
3	0x3ead5e83	0.3386117
4	0xbdd727cc	-0.105056375
5	0x3de2d464	0.110756665
6	0x3fabf5e3	1.3434414
7	0x3e5cc9ad	0.21561308
8	0x3ea3efc6	0.3201887
9	0xbe2e3e1c	-0.1701588
10	0x3fe9f635	1.8278261
11	0x3d5378ca	0.051628865
12	0x3ede9a9a	0.43477327
13	0x3dacf85c	0.08445808
14	0x3eb6df82	0.35717398
15	0x3d9eeca0	0.077599764
16	0x3e356827	0.17715512
17	0x3c8a7be0	0.016904771
18	0xbf20211d	-0.62550527
19	0x3e109d29	0.14122452
20	0xbedf86a5	-0.43657413
21	0x3ce22149	0.027603762
22	0x3f867944	1.0505757
23	0x3f19fffb	0.6015622
24	0xbf092d42	-0.5358468
25	0xbe9a3b8d	-0.3012356
26	0xbea5e925	-0.32404438
27	0xbe3dd7c4	-0.1853934
28	0x3f03b282	0.51444256
29	0xbf2ef6f8	-0.68345594
30	0x3f84cf11	1.0375692
31	0xbe955a50	-0.29170465
32	0x3ebf4ab0	0.3736167
33	0x3d7d0f81	0.061782364
34	0xbf19e94c	-0.6012161
35	0x3ee6d922	0.45087534
36	0xbd8eafcb	-0.069671236
37	0x3eb0a78a	0.34502822
38	0x3db603fb	0.08887478
39	0xbd844d21	-0.06460024
40	0x3ea1cc18	0.31601024
41	0xbc3fcd20	-0.01170662
42	0x3f9434ff	1.1578673
43	0x3ea4e016	0.32202214
44	0x3e50079b	0.20315401
45	0xbe464c18	-0.19364965
46	0x3e9a5568	0.30143285
47	0x3c53faaf	0.012938186
48	0x3e57fb36	0.21091923
49	0xbe8cc15d	-0.27491274
50	0xbf7dd267	-0.99149173
51	0xbdcd5eb5	-0.100278296
52	0xbe1acabf	-0.15116404
53	0x3f0b42c5	0.5439876
54	0x3ea97aef	0.33101603
55	0x3e598deb	0.21245544
56	0x3dd6b6a4	0.10484055
57	0xbdd8c34b	-0.10584124
58	0x3f950c24	1.164433
59	0xbed16792	-0.4089933
60	0x3d925de4	0.071468145
61	0xbea66cd9	-0.3250492
62	0xbe9e0530	-0.30863333
63	0x3e3a0ab4	0.18168145
64	0x3e8e6fcb	0.27819666
65	0xbe44eaee	-0.19230244
66	0x3fa3bb57	1.2791547
67	0xbebe0a01	-0.37117007
68	0xbe2b5a07	-0.16733561
69	0x3da9aa06	0.082843825
70	0x3fe705c1	1.8048631
71	0x3ded04fb	0.115732156
72	0x3ef19927	0.47187158
73	0xbed9f9a2	-0.42573267
74	0xbf4fb312	-0.81132615
75	0xbe0203ff	-0.12696837
76	0xbefd57a5	-0.4948093
77	0x3e57d244	0.21076304
78	0x3fb320a9	1.3994342
79	0x3e871b5c	0.2638806
80	0xbd3edcb5	-0.0465972
81	0xbe6452e6	-0.22297248
82	0x3fb37793	1.4020866
83	0xbdaab91d	-0.08336089
84	0x3e9d129a	0.30678254
85	0xbe7111d5	-0.23541959
86	0x3ed1c662	0.40971667
87	0xbeda0834	-0.42584383
88	0xbed376bd	-0.41301528
89	0x3ddc6cd2	0.10762943
90	0x3cb3c08a	0.021942396
91	0xbd6ddc34	-0.05807133
92	0x3db05f73	0.086119555
93	0x3e75593b	0.2395982
94	0xbf51e802	-0.8199464
95	0xbe63f906	-0.22262964
96	0x3f14a12a	0.58058417
97	0xbe5a9dc7	-0.2134925
98	0xbfeb6b54	-1.8392129
99	0xbecdc813	-0.40191707
100	0xbf4328ad	-0.7623394
101	0x3d4923c2	0.049106367
102	0x3e77eb07	0.2421075
103	0xbec2d3a8	-0.38052106
104	0xbd4cb5ad	-0.049977947
105	0xbdb0d368	-0.086340725
106	0xbfd38e1c	-1.6527743
107	0xbe3cb12d	-0.18426962
108	0xbeb42112	-0.3518148
109	0xbe577cb8	-0.2104367
110	0x3eb113c7	0.345854
111	0x3da2e433	0.07953682
112	0xbd860011	-0.065429814
113	0xbf199904	-0.5999911
114	0x3e10ee98	0.14153516
115	0x3bddb3d2	0.006765821
116	0x3d872423	0.065986894
117	0xbf162eb3	-0.5866501
118	0xbf82f31c	-1.0230441
119	0xbd045564	-0.032307997
120	0xbb840e74	-0.0040300433
121	0xbe90de3f	-0.2829456
122	0xbf86c083	-1.05275
123	0xbe8cd555	-0.2750651
124	0x3b1f239f	0.0024282706
125	0xbeac0a92	-0.33601815
126	0xbe407d3f	-0.18797778
127	0xbebf8a1e	-0.37410063
128	0x3e2fe3d0	0.17176747
129	0xbe1fa7b1	-0.15591313
130	0x3f1cd386	0.6126026
131	0x3e0b6a6f	0.1361482
132	0xbec765ad	-0.3894476
133	0x3ec15b80	0.3776512
134	0x3d8bc239	0.068241544
135	0xbde1d8a2	-0.110276476
136	0xbee71a2a	-0.4513715
137	0xbee3c944	-0.4448949
138	0xbe195bd8	-0.14976442
139	0xbddf1e01	-0.10894395
140	0x3e5840d4	0.2111848
141	0xbed4fc5e	-0.4159879
142	0x3f10339a	0.5632874
143	0xbeb11298	-0.34584498
144	0xbdc64f9e	-0.096831545
145	0x3e21fc14	0.15818816
146	0x3da938fb	0.08262821
147	0x3eb96f81	0.36217883
148	0x3f0fcec1	0.56174856
149	0xbe310a7e	-0.17289159
150	0xbf8ab0c1	-1.0835191
151	0xbe53247f	-0.20619391
152	0x3f029113	0.51002616
153	0xbf1248eb	-0.57142514
154	0x3e5c334b	0.21503942
155	0xbec49696	-0.38396138
156	0x3ea5cc7a	0.32382566
157	0x3e596049	0.21228136
158	0x3e84f00a	0.25964385
159	0xbea3ade8	-0.31968617
160	0x3f23c31e	0.639696
161	0x3e244b3d	0.16044326
162	0xbec6e81d	-0.38848963
163	0xbec339a8	-0.38129926
164	0x3e01a82a	0.12661806
165	0xbc94b754	-0.018153824
166	0xbefc08d1	-0.49225476
167	0x3ee52938	0.4475801
168	0xbe012ee0	-0.12615538
169	0xbead33f4	-0.338287
170	0xbefcf617	-0.49406502
171	0x3e1b149e	0.15144584
172	0x3edc16d7	0.42986175
173	0xbe1f01e6	-0.15528068
174	0xbf85e801	-1.0461427
175	0xbe8e6446	-0.27810878
176	0xbe8653ee	-0.26235908
177	0x3e5235d7	0.20528351
178	0x3f3885f3	0.7207939
179	0xbf32eeb3	-0.69895476
180	0x3d7d1637	0.061788764
181	0x3ea04d61	0.31309035
182	0x3e2e36a7	0.17013036
183	0xbe8475f6	-0.25871247
184	0x3e7eebd3	0.24894647
185	0x3e3409e7	0.17581902
186	0x3ea42419	0.3205879
187	0xbd64c78f	-0.055854376
188	0xbe28d88c	-0.16488856
189	0x3d4c7e00	0.04992485
190	0xbe679e1d	-0.22618909
191	0xbda00df4	-0.07815161
192	0x3eab1fd1	0.33422711
193	0x3eb34791	0.35015538
194	0xbe05383c	-0.13009733
195	0x3ca54dd5	0.020178715
196	0xbd782093	-0.06057794
197	0xbc842386	-0.01613022
198	0x3dd393bb	0.10330912
199	0x3e747f8b	0.23876779
200	0xbeb25d78	-0.34836936
201	0x3e0d4597	0.13796078
202	0x3ff23938	1.8923712
203	0x3eb0ea73	0.3455387
204	0x3e9ffa05	0.31245437
205	0xbe68ae8c	-0.22722834
206	0xbfcb9f3e	-1.5907972
207	0xbea27379	-0.31728724
208	0xbe5a4cda	-0.21318379
209	0x3e04c0fb	0.12964241
210	0x3fa9885b	1.3244737
211	0x3ea897d8	0.32928348
212	0xbeb74a34	-0.357988
213	0x3ab0fbb6	0.001350275
214	0x3fcc8eaa	1.5981038
215	0x3f0854d8	0.5325446
216	0x3d942118	0.07232875
217	0xbe0497d0	-0.12948537
218	0x3e53d27c	0.20685762
219	0xbe4302e8	-0.19044077
220	0xbf0a8961	-0.54115874
221	0x3df700e2	0.12060715
222	0xbf734ee8	-0.95042276
223	0x3d9475d9	0.0724904
224	0xbf0bcb1a	-0.54606783
225	0x3ec13101	0.377327
226	0x3f6ca7df	0.9244365
227	0xbde78173	-0.11303987
228	0xbeb6e7a6	-0.3572361
229	0xbf009c5c	-0.50238585
230	0xbeaf7283	-0.34267053
231	0x3f1bf5c2	0.6092187
232	0x3ea64023	0.32470807
233	0x3ef9dec7	0.48802778
234	0x3f35089d	0.7071627
235	0x3eb387cb	0.3506454
236	0x3eb524d3	0.35379657
237	0xbe75ec15	-0.2401584
238	0xbff7ace2	-1.9349635
239	0xbedfe0bc	-0.43726146
240	0x3f03b955	0.5145467
241	0xbe18dfb1	-0.14929081
242	0xbf9a73c4	-1.2066579
243	0xbe41717e	-0.1889095
244	0x3b0afcd7	0.0021207833
245	0xbe6ddb50	-0.23228192
246	0xbf368e24	-0.7131064
247	0x3e995191	0.29945043
248	0xbe30365a	-0.17208233
249	0x3e45fb63	0.19334178
250	0xbe813491	-0.25235417
251	0xbe1bb1bc	-0.15204519
252	0x3e14bc86	0.14525041
253	0xbeceb86e	-0.40375084
254	0xbfafbd41	-1.3729631
255	0xbde3dc7c	-0.111260384

net.0.bias f4 [128]
0	0x3e6e38a1	0.2326379
1	0xbea99618	-0.33122325
2	0xbe924d23	-0.28574476
3	0xbf3193bd	-0.69366056
4	0x3f123326	0.57109296
5	0xbf37d195	-0.7180417
6	0x3ed785a3	0.42094144
7	0x3df64bd7	0.12026184
8	0x3c626ad8	0.013819419
9	0x3ebe7251	0.37196591
10	0xbdaf0e32	-0.085476294
11	0x3edef4ea	0.4354623
12	0x3ef63993	0.480908
13	0xbed20885	-0.41022125
14	0x3e5ac36a	0.21363607
15	0x3d757ae3	0.059931647
16	0x3db3d8ce	0.087815866
17	0xbd530c71	-0.051525537
18	0x3ea7285a	0.32647973
19	0xbeb5abdf	-0.3548269
20	0xbdaed22b	-0.0853618
21	0x3ef5b68e	0.4799084
22	0x3ec85883	0.3913003
23	0xbd17d974	-0.037072614
24	0xbee9d5fc	-0.4567107
25	0x3d2849a0	0.04108584
26	0xbebaa77e	-0.3645591
27	0x3ef84618	0.48490977
28	0xbec1c806	-0.37847918
29	0x3d1cfc77	0.038326707
30	0xbe20800f	-0.1567385
31	0xbd0384fb	-0.032109242
32	0x3f15ac11	0.5846568
33	0x3e0cc19c	0.13745731
34	0x3eabf459	0.3358486
35	0x3eebc0f7	0.46045658
36	0x3f02f457	0.51154083
37	0xbe8c24f4	-0.27371943
38	0x3a374d7a	0.0006992441
39	0x3e77fd14	0.24217635
40	0xbe68af05	-0.22723015
41	0x3eb3a79b	0.3508881
42	0x3d9881e0	0.07446647
43	0xbeb8c29d	-0.36085978
44	0x3dcf0038	0.101074636
45	0x3d83fc18	0.064445674
46	0x3e9491c5	0.29017463
47	0x3f16b119	0.5886398
48	0x3eda38a7	0.42621347
49	0x3f10b127	0.56520313
50	0xbedeee30	-0.43541098
51	0xbed3c063	-0.41357717
52	0xbf102bb9	-0.56316715
53	0xbecb45be	-0.39701647
54	0xbee1997e	-0.44062418
55	0xbf1fc851	-0.62415034
56	0xbeaac7f1	-0.33355668
57	0xbf004db6	-0.5011858
58	0xbe03cf7e	-0.1287212
59	0xbeea6a27	-0.45784113
60	0xbea33ff8	-0.31884742
61	0x3e38e3a4	0.18055588
62	0x3f12a47a	0.5728222
63	0xbe4994ae	-0.19685623
64	0xbe71f95e	-0.23630282
65	0x3eb8ff5e	0.3613233
66	0xbeb8156a	-0.35953838
67	0xbef96e0d	-0.48716775
68	0x3e9eede9	0.31040886
69	0xbf15d088	-0.5852132
70	0x3db885f2	0.09009923
71	0x3ef22f35	0.4730164
72	0x3e9c617b	0.30543122
73	0xbc78e33f	-0.015190898
74	0xbe8538e9	-0.26019982
75	0xbe74f0d3	-0.23919992
76	0x3b3f4f54	0.002919157
77	0x3e847af3	0.25875053
78	0x3e93f253	0.28895816
79	0x3efac04e	0.48974842
80	0xbeb10806	-0.34576434
81	0xbe068ef5	-0.13140471
82	0xbe945db9	-0.28977755
83	0xbdf2e627	-0.11860304
84	0xbd954e36	-0.07290308
85	0xbecf36d7	-0.40471527
86	0x3ed2dc52	0.41183716
87	0x3d08ee5a	0.033430435
88	0xbe897b95	-0.26852098
89	0x3ea4a463	0.32156667
90	0xbefa9cb1	-0.4894767
91	0xbf18ada5	-0.5963996
92	0xbeb36c60	-0.3504362
93	0xbeafe065	-0.34350887
94	0xbeb5cf77	-0.35509846
95	0xbe2d47b2	-0.16921881
96	0x3ef2449d	0.47317973
97	0x3f16b77a	0.58873713
98	0x3eace203	0.33766183
99	0xbee851f8	-0.45375037
100	0xbeabe2c8	-0.33571458
101	0x3ef7a359	0.48366812
102	0x3ea35ec6	0.31908244
103	0x3d14c3be	0.036319487
104	0x3d5bbd78	0.05364749
105	0xbf2caf4a	-0.6745497
106	0xbe3d011c	-0.18457454
107	0x3f13a949	0.57680184
108	0xbe6aed55	-0.22942097
109	0xbe75c8f3	-0.24002437
110	0xbed02d9a	-0.4065979
111	0xbe13a60c	-0.1441881
112	0x3cf771d1	0.03020564
113	0xbee4a385	-0.44656006
114	0xbe4d5ace	-0.2005417
115	0x3e4e8076	0.20166191
116	0xbefc2629	-0.49247864
117	0x3e6ed221	0.23322345
118	0xbeeb6570	-0.45975828
119	0xbf03b33f	-0.5144538
120	0x3e9308fb	0.2871779
121	0x3eeba07d	0.4602088
122	0xbecf860e	-0.40531963
123	0xbe650a72	-0.22367266
124	0xbf29ad29	-0.66279846
125	0xbea4caad	-0.3218588
126	0xbeea9719	-0.45818403
127	0xbe8443c6	-0.25832957

net.2.weight f4 [128, 128]
0	0x3e1fdee0	0.15612364
1	0xbeee2109	-0.4650958
2	0xbe9e340e	-0.3089909
3	0xbed70820	-0.41998386
4	0x3d18bd63	0.03728999
5	0xbd36147c	-0.04445313
6	0x3dda5101	0.106599815
7	0x3c9df564	0.01928205
8	0x3ccfb4f5	0.025354842
9	0x3d4b2e42	0.04960466
10	0x3dc58f7b	0.09646507
11	0x3d6aa517	0.05728635
12	0x3e269c2c	0.16270512
13	0xbe78fcdd	-0.2431521
14	0xbb0b9027	-0.0021295638
15	0x3d48a3e6	0.04898443
16	0xbe3bea7d	-0.18351169
17	0x3dd6bf64	0.104857236
18	0x3c95a76a	0.018268306
19	0xbe279993	-0.16367178
20	0xbe24903f	-0.1607065
21	0x3ddf6997	0.109088115
22	0x3be0ac14	0.006856451
23	0xbde382f8	-0.11108965
24	0xbf3b0147	-0.73048824
25	0xbde5ea1c	-0.112262934
26	0xbf763687	-0.9617695
27	0x3dbdfbef	0.09276568
28	0xbdb7d140	-0.08975458
29	0xbe86394c	-0.2621559
30	0xbed37373	-0.41299018
31	0xbcb3d188	-0.021950498
32	0x3e4e9ce6	0.2017704
33	0x3d6fb682	0.058523662
34	0x3b90d712	0.0044201696
35	0x3e146607	0.14492045
36	0x3debfad5	0.11522452
37	0xbedef667	-0.43547365
38	0x3e97d112	0.29651695
39	0xbb23595f	-0.0024925095
40	0x3b61b2ea	0.0034438916
41	0x3e027df6	0.12743363
42	0xbd4f8267	-0.05066147
43	0x3e300958	0.17191064
44	0xbd3bd64b	-0.045858663
45	0x3d37c4b1	0.044865314
46	0x3c05ce8e	0.008166922
47	0x3db33c5f	0.08751749
48	0x3c319cbb	0.01084059
49	0x3dba69dc	0.09102222
50	0x3e800394	0.2500273
51	0xbfc7efc3	-1.5620044
52	0x3ff6553f	1.9244765
53	0x3e29aca5	0.16569765
54	0x3c8daad4	0.017293371
55	0xbf1b9090	-0.6076746
56	0x3eb3242f	0.34988543
57	0x3cc979c4	0.024594195
58	0xbe3336f1	-0.17501427
59	0xbfcb9f60	-1.5908012
60	0xbf34a010	-0.70556736
61	0x3b01753d	0.0019753717
62	0x3d9bb6b8	0.0760321
63	0xbe523577	-0.20528208
64	0xbcce5098	-0.025184914
65	0xba020106	-0.0004959259
66	0xbc6f79e3	-0.014616462
67	0xbf63baf2	-0.8895713
68	0x3cbf7e36	0.023375612
69	0xbe6ba650	-0.23012662
70	0xbca5be51	-0.020232351
71	0x3e1ace0a	0.1511766
72	0x3e1e1127	0.1543623
73	0xbdd70b28	-0.10500175
74	0xc01b55db	-2.4271152
75	0xbf8d8179	-1.1055137
76	0x3ec03c57	0.37546036
77	0x3c823f7f	0.015899418
78	0x3dd373d2	0.10324825
79	0x3dd173e4	0.102271825
80	0xbe91b0b7	-0.28455135
81	0xbc8b7354	-0.017022766
82	0xbee70b0e	-0.45125622
83	0x3ea6b1a1	0.32557395
84	0xbea352df	-0.31899163
85	0xbfa95266	-1.3228271
86	0x3df34f3a	0.11880346
87	0x3e3571ac	0.17719144
88	0xbef4e074	-0.47827494
89	0x3d88b0a3	0.06674316
90	0xbdcb4f36	-0.09927218
91	0xbef9cff6	-0.48791474
92	0xbf06a71e	-0.5259875
93	0xc028be52	-2.6366162
94	0xbe726508	-0.23671353
95	0x3d7e4f35	0.062087256
96	0x3d1358d1	0.035973374
97	0x3d364437	0.04449865
98	0x3db31429	0.087440796
99	0xbe80fcdc	-0.25192916
100	0x3dc835d5	0.09775893
101	0x3d978dbc	0.074000806
102	0x3de7b4b3	0.113137625
103	0x3c11f5e9	0.008908727
104	0xbe188a01	-0.14896394
105	0xbd6febff	-0.058574673
106	0xbe0ba3ba	-0.13636675
107	0x3d760b24	0.06006922
108	0xbd3ac287	-0.045595672
109	0xbd07ffe3	-0.033203017
110	0xbe504fa7	-0.20342885
111	0x3d6849e3	0.05671109
112	0x3ea7b281	0.32753375
113	0x3dd893ba	0.105750516
114	0x3cffc691	0.031222614
115	0xbcac93b8	-0.021066532
116	0xbbeeb938	-0.0072852634
117	0x3e3bf860	0.18356466
118	0xbe59b586	-0.21260652
119	0x3cbef9e2	0.023312513
120	0x3d9fe5ad	0.07807479
121	0x3d71739f	0.058948155
122	0x3e740d14	0.23833114
123	0xbd1c4745	-0.038153905
124	0xbe63edf0	-0.22258735
125	0x3d235eb1	0.039885227
126	0xbe106227	-0.14099942
127	0xbe6d55db	-0.23177283
128	0xbb86bd30	-0.0041119084
129	0xbea2dfdd	-0.3181142
130	0xbe953fbb	-0.29150185
131	0xbedcd0d0	-0.4312806
132	0x3b2c2802	0.0026268964
133	0xbd5fb75d	-0.05461823
134	0x3c8e50af	0.017372457
135	0x3d38ccc0	0.04511714
136	0xbce42da6	-0.027853798
137	0x3c2b9052	0.01047142
138	0x3da561c6	0.080752894
139	0x3d853f0b	0.06506165
140	0x3c5e1ac6	0.013556188
141	0xbe5f92f1	-0.21833397
142	0xbd16a599	-0.03677902
143	0xbc94794e	-0.018124249
144	0xbe476b0b	-0.19474427
145	0x3dc554b2	0.09635295
146	0xbceba989	-0.028767364
147	0xbe0973ad	-0.13423033
148	0xbcde4b2c	-0.027135454
149	0x3da83c61	0.08214641
150	0xbc55aea2	-0.013042124
151	0xbdcae2d5	-0.09906546
152	0xbec13a20	-0.37739658
153	0xbdf28e9f	-0.11843609
154	0xbd6aa580	-0.05728674
155	0x3c97ed7d	0.01854586
156	0xbe02605f	-0.12732075
157	0xbe3ea023	-0.18615775
158	0xbd875f55	-0.0660998
159	0x3d85b060	0.065277815
160	0x3d8ae6b2	0.06782283
161	0x3d02fa60	0.031977057
162	0xbc8a0a51	-0.016850622
163	0x3d9b6da1	0.075892694
164	0x3dbe6247	0.09296089
165	0xbe57ecb8	-0.21086395
166	0x3ea2b62c	0.3177961
167	0x3b5c6f11	0.0033635537
168	0x3dffdcde	0.12493299
169	0x3d60a015	0.054840166
170	0xbd50c15a	-0.050965644
171	0x3ecdf37c	0.40224826
172	0xbcf988bd	-0.03046071
173	0xbc425b42	-0.011862578
174	0x3d8ae965	0.06782798
175	0x3caa69d2	0.020802412
176	0x3d851c72	0.06499566
177	0x3e227a49	0.1586696
178	0x3e90e1f3	0.28297386
179	0x3d4220ca	0.04739455
180	0x4009701c	2.1474676
181	0x3e240ae0	0.16019773
182	0xbd4dbcb4	-0.05022879
183	0xbf21fdba	-0.6327778
184	0x3e1c0b40	0.15238667
185	0xbca47b43	-0.020078307
186	0xbdbbdb10	-0.09172642
187	0xbfa6155e	-1.2975271
188	0x3e9137fb	0.28363022
189	0x3c7f0f77	0.015567652
190	0x3db6d36d	0.08927045
191	0xbd184b26	-0.037181042
192	0xbe034324	-0.12818581
193	0xbce76872	-0.028248046
194	0xbe086850	-0.13321042
195	0x3e7bcd3b	0.24590008
196	0xbc5841e6	-0.013199305
197	0xbde273f9	-0.11057276
198	0xbd089cae	-0.033352546
199	0x3d5b986a	0.05361215
200	0x3d2974fe	0.041371338
201	0xbe04ec3b	-0.1298074
202	0xbfacf93d	-1.3513561
203	0xbf86cebb	-1.0531839
204	0x3e961704	0.29314435
205	0x3db5a54d	0.08869419
206	0x3e14b69c	0.14522785
207	0x3ccf83ac	0.02533134
208	0xbdf5a542	-0.11994411
209	0x3d3f2ca3	0.04667343
210	0xbe688a14	-0.22708923
211	0x3e2786db	0.16360037
212	0xbea78a1a	-0.3272255
213	0xbf43fc24	-0.7655661
214	0x3cf5e5d3	0.030016815
215	0x3e9e6843	0.3093892
216	0xbe3cd5d5	-0.18440945
217	0x3e118c36	0.14213642
218	0xbca8cdda	-0.02060597
219	0xbdc42a84	-0.09578422
220	0xbe41aadf	-0.18912838
221	0xbfb7b333	-1.4351562
222	0xbd711d0b	-0.05886559
223	0xbca987c2	-0.020694617
224	0xbd20335d	-0.039111484
225	0x3dbfe5d8	0.09370011
226	0x3d342c52	0.04398758
227	0xbdfaae43	-0.12240269
228	0x3c635bfc	0.013876911
229	0xbd7ad750	-0.061240494
230	0x3c9702ae	0.018433895
231	0x3ca8ee5f	0.020621477
232	0xbd387380	-0.045032024
233	0x3c050cd0	0.0081207305
234	0xbe741af2	-0.23838404
235	0x3d010e3f	0.031507727
236	0x3e12a081	0.1431904
237	0x3e62ef46	0.22161588
238	0x3e493a56	0.1965116
239	0x3d2e8588	0.042607814
240	0x3e9eda34	0.3102585
241	0x3e39f4d7	0.18159805
242	0x3c436b5e	0.011927454
243	0x3d09537b	0.03352688
244	0x3d4b3a53	0.04961617
245	0x3e38e16b	0.1805474
246	0x3be63c00	0.0070261955
247	0xbd64d271	-0.055864755
248	0xbce6b389	-0.02816178
249	0x3da9dfa8	0.08294612
250	0x3e95f57e	0.29288858
251	0xbd23a365	-0.039950747
252	0xbd65283e	-0.05594658
253	0x3c9d75b9	0.019221174
254	0x3db0f1dd	0.08639882
255	0x3d309d59	0.04311881

net.2.bias f4 [128]
0	0x3df5b0f6	0.11996643
1	0x3d7e0af9	0.062022183
2	0x3dacdfb4	0.084411055
3	0xbdb030c0	-0.08603048
4	0x3d1417be	0.036155455
5	0xbb9c27f2	-0.004765504
6	0x3e023c08	0.12718213
7	0x3e6cd231	0.23127057
8	0xbd38a7e5	-0.04508199
9	0x3c701358	0.014653049
10	0x3dda0a71	0.10646523
11	0xbd4c0dd7	-0.049817886
12	0x3da41b02	0.08012964
13	0xbd3ea2b4	-0.046541885
14	0x3e09f27c	0.13471407
15	0x3e153385	0.14570434
16	0x3e2c012e	0.16797325
17	0x3da82bec	0.082115024
18	0x3e148459	0.14503612
19	0x3dcd2d30	0.100183845
20	0x3d520d06	0.05128195
21	0x3dc74adb	0.097310744
22	0xbd9b52f2	-0.0758418
23	0x3e418b36	0.18900761
24	0x3d44a78f	0.04801136
25	0x3e2d3bf0	0.16917396
26	0x3e26353b	0.16231243
27	0x3d4ad035	0.049514968
28	0x3e457cfb	0.19285958
29	0x3cc1699a	0.023609925
30	0xbdba64fd	-0.09101293
31	0x3cf7df6d	0.030257905
32	0xbda70ee2	-0.081571355
33	0x3d572da1	0.05253375
34	0xbd54694d	-0.051858235
35	0x3d816f84	0.06320098
36	0x3dff6177	0.12469762
37	0xbd4caac6	-0.04996755
38	0x3dad2505	0.084543265
39	0x3d352dda	0.04423318
40	0xbc35e597	-0.011102102
41	0x3d6fb992	0.058526583
42	0xbc043666	-0.00806961
43	0x3e3d5c3b	0.18492214
44	0xbad85370	-0.0016504359
45	0x3d5846ab	0.05280177
46	0x3e38c1e2	0.1804271
47	0xbd613b25	-0.054988045
48	0x3e59cdee	0.21269962
49	0xbebd3fd2	-0.36962754
50	0x3e016114	0.12634689
51	0x3e1adc7b	0.15123169
52	0x3d90656b	0.07050594
53	0x3e0f2324	0.13978249
54	0x3e3448d5	0.17605908
55	0xbcd87bf8	-0.0264263
56	0x3e4833a2	0.19550946
57	0xbd872770	-0.06599319
58	0x3e191db6	0.1495274
59	0x3c66175a	0.014043653
60	0x3e349b5e	0.17637393
61	0x3d5d2565	0.05399074
62	0x3e2a7c50	0.16648984
63	0x3ddd98fa	0.108201936
64	0x3e2f7044	0.1713267
65	0x3df78c94	0.1208736
66	0x3d95109a	0.07278557
67	0x3e387169	0.18012013
68	0xba5ae698	-0.0008350401
69	0x3e3bf3ee	0.1835477
70	0x3c9cf908	0.019161716
71	0x3d8f944d	0.07010708
72	0x3df2f665	0.11863402
73	0x3c04f10f	0.0081141135
74	0xbca8e454	-0.020616688
75	0xbd942c2b	-0.07234987
76	0x3d8b7af5	0.068105616
77	0x3e4081e2	0.18799546
78	0x3df1a4c8	0.11799008
79	0xbc9707ab	-0.018436274
80	0xbbb299db	-0.00545047
81	0x3e5f78f0	0.21823478
82	0x3d3056d7	0.043051567
83	0x3e2530c3	0.16131882
84	0x3e83e7dd	0.25762835
85	0x3d3ef1da	0.046617366
86	0x3c77b749	0.015119382
87	0xbd92df5e	-0.0717151
88	0xbd95a437	-0.07306712
89	0x3dee6411	0.1164018
90	0x3e81b8f3	0.25336418
91	0xbe232328	-0.1593138
92	0x3e21a5f8	0.15785968
93	0x3cd3df93	0.025863444
94	0xbdc5d852	-0.096604005
95	0xbdc66fc5	-0.09689287
96	0x3ab27b14	0.0013617002
97	0xbd57a341	-0.052645925
98	0x3cab41ea	0.020905454
99	0xbdbd3e7c	-0.092404336
100	0x3e47cbee	0.19511387
101	0xbdbe6df4	-0.09298316
102	0x3e1b6769	0.15176167
103	0x3e166185	0.14685638
104	0x3d95393f	0.072863095
105	0x3d7c64f1	0.061619703
106	0x3cd7555c	0.02628582
107	0x3bda8af1	0.006669395
108	0x3dbf9bd8	0.09355897
109	0x3e4966d2	0.19668129
110	0xbd199c02	-0.037502296
111	0xbbcb7599	-0.006209087
112	0x3e0bc1b3	0.13648109
113	0x3c1003ff	0.008790015
114	0x3d8fa65f	0.07014155
115	0x3e41c8d9	0.18924274
116	0xba6bfc9d	-0.0009002181
117	0x3cb7e9d2	0.022450361
118	0xbd533e2c	-0.051572964
119	0x3dd95a9b	0.10612985
120	0x3d649191	0.055802885
121	0x3e3a1d7b	0.18175308
122	0x3ccb7afa	0.024838913
123	0x3dbb84a9	0.09156162
124	0x3c9adf8e	0.018905427
125	0x3e59931f	0.21247528
126	0x3e3ccbf5	0.18437178
127	0x3e1142a2	0.14185575

net.4.weight f4 [2, 128]
0	0x3dc1679e	0.094435915
1	0xbba5c302	-0.005058647
2	0xbcc57412	-0.024103198
3	0x3fc461f0	1.5342388
4	0xbd468689	-0.048468146
5	0x3db2cbcf	0.0873028
6	0x3e23ef4e	0.16009256
7	0xbde163f5	-0.110053934
8	0xbdef2b40	-0.11678171
9	0x3d407938	0.046990603
10	0x3ee8ed97	0.45493767
11	0xbfe83664	-1.8141599
12	0x3ed42313	0.4143301
13	0xbd8482c2	-0.064702526
14	0x3edf386f	0.43597743
15	0x3f05fc88	0.5233846
16	0x3edd9f44	0.43285573
17	0x3f59fbb9	0.85149723
18	0x3e8aa938	0.2708223
19	0xbe6d8b71	-0.23197724
20	0x3f006b2f	0.5016355
21	0x3ef5cc40	0.48007393
22	0xbd21ca56	-0.039499603
23	0xbf7baeee	-0.98313797
24	0xbddb314f	-0.10702764
25	0x3e1add5f	0.15123509
26	0x3e630b5c	0.22172302
27	0xbef75956	-0.48310345
28	0x3f4406e2	0.76573
29	0xbd7bc777	-0.06146952
30	0x3be7b551	0.007071175
31	0x3e574290	0.21021485
32	0xbd4f5182	-0.05061484
33	0x3e73b7e6	0.2380062
34	0x3f719085	0.94361144
35	0x3d84655d	0.06464646
36	0x3dfa0580	0.1220808
37	0xbd0cd640	-0.034384012
38	0x3ea37937	0.31928417
39	0xbb4b19dd	-0.0030990758
40	0x3c9b3c38	0.018949613
41	0x3f4db3cd	0.8035248
42	0xbd83f2a7	-0.06442767
43	0x3f57368b	0.840676
44	0xbd060ffa	-0.03273008
45	0xbd5d813f	-0.054078337
46	0x3f06e4f1	0.52693087
47	0xc01993b9	-2.3996413
48	0xbebcdf11	-0.36888936
49	0xbf1b9fb9	-0.6079059
50	0x3ef7e399	0.4841583
51	0x3f2bd8d9	0.6712776
52	0x3df6f3dc	0.12058231
53	0x3e303dba	0.17211047
54	0x3f0b4875	0.54407436
55	0xbd6d51a4	-0.057939187
56	0x3eea47bc	0.45757854
57	0x3d677b44	0.05651404
58	0x3ee640a7	0.449712
59	0x393bfbae	0.00017927468
60	0x3f0da7c2	0.55334103
61	0xbc9343d5	-0.01797668
62	0x3f0fe446	0.5620769
63	0x3f538f8d	0.82640916
64	0x3e989cf9	0.2980726
65	0x3e1206fd	0.14260478
66	0x3e24b743	0.16085534
67	0x3eddec1a	0.43344194
68	0xbda5ed10	-0.08101857
69	0xbf823e9b	-1.0175356
70	0xbd2e4476	-0.04254576
71	0x3e0b2dbe	0.13591668
72	0xbbc99e2c	-0.0061528888
73	0xbcc507e8	-0.024051622
74	0xbd5886cd	-0.05286293
75	0xbd9d67ef	-0.076858394
76	0x3efd08ef	0.49420878
77	0x3f4fc400	0.8115845
78	0xbd7f97ab	-0.0624005
79	0xbd51ba45	-0.05120303
80	0xbff981cc	-1.9492736
81	0xbe201045	-0.15631206
82	0xbd9baa75	-0.076008715
83	0x3f15d7df	0.5853252
84	0x3f2b7483	0.6697466
85	0x3efa3677	0.48869678
86	0x3db552e4	0.08853701
87	0xbd583dcf	-0.05279332
88	0x3dad83bd	0.08472393
89	0xbeab56ae	-0.3346457
90	0xbf0e5f47	-0.5561413
91	0xbf0a3327	-0.539843
92	0x3f017bb5	0.50579387
93	0x3c8dc1ce	0.017304327
94	0xbd395f6a	-0.04525701
95	0x3d8bca8f	0.06825744
96	0xbd24a4fc	-0.040196404
97	0x3c81750f	0.015802888
98	0x3d483380	0.04887724
99	0x3d5563f3	0.052097272
100	0x3f07c467	0.5303406
101	0xbc3369c8	-0.010950513
102	0x3e32c115	0.17456467
103	0x3ed30ab3	0.412191
104	0x3f020b80	0.507988
105	0xbd35b237	-0.044359412
106	0x3c63471f	0.013871937
107	0x3f43494f	0.76283735
108	0x3ec464fe	0.383583
109	0x3eec30a3	0.46130857
110	0x3d128400	0.035770416
111	0xbd9b7202	-0.07590105
112	0x3e6d46dc	0.23171562
113	0x3d9160bf	0.07098531
114	0x3eeb4a75	0.45955244
115	0x3e293166	0.1652275
116	0xbd809fb6	-0.062804624
117	0xbca228e3	-0.019794887
118	0xbd85781b	-0.06517049
119	0xbf35bced	-0.709914
120	0x3e651bdd	0.2237391
121	0x3ec4dc32	0.38449246
122	0x3dba7df1	0.09106053
123	0xbe8f6d1c	-0.2801293
124	0xbe85cd8c	-0.26133382
125	0xbefc78a5	-0.49310794
126	0x3e2ced1d	0.16887327
127	0x3edb2ee5	0.42809215
128	0x3eb9dc9d	0.36301127
129	0x3e896954	0.2683817
130	0x3ee38238	0.44435287
131	0xbf00b9c2	-0.50283444
132	0x3c0ef540	0.008725464
133	0x3e91859f	0.28422257
134	0x3efd96bf	0.49529073
135	0x3eefa426	0.46804923
136	0xc003b1db	-2.0577304
137	0xbd3dd226	-0.04634299
138	0x3f252161	0.6450406
139	0x3e9871bb	0.2977427
140	0x3ef943f2	0.4868465
141	0xbcc3b5b8	-0.023890361
142	0xbe40fa41	-0.18845464
143	0x3e5932c9	0.21210779
144	0x3e501ff2	0.20324686
145	0xbd64e599	-0.055883024
146	0x3e92ad2a	0.2864774
147	0x3f5ae5df	0.85507005
148	0x3e5cece7	0.21574746
149	0x3f006d22	0.50166523
150	0x3c5f45bc	0.013627466
151	0x3f1c6210	0.6108713
152	0xbe1724cb	-0.14760129
153	0x3f01145d	0.50421697
154	0x3ed88955	0.42292276
155	0x3de8db6d	0.11369977
156	0xbf3dbbf0	-0.74114895
157	0x3d7f9e82	0.062407024
158	0x3d92a854	0.07161012
159	0x3eaa960c	0.33317602
160	0x3c13d743	0.00902349
161	0x3ee2a269	0.44264534
162	0xc006dc81	-2.1072085
163	0xbd80a161	-0.062807806
164	0x3e3d9270	0.18512893
165	0xbdb8e8e6	-0.09028797
166	0x3d47dc48	0.04879406
167	0xbd3ecc75	-0.046581704
168	0xbd71c9a3	-0.059030186
169	0xbba4ac01	-0.0050253873
170	0xba3b0400	-0.000713408
171	0xbf104675	-0.5635751
172	0xbd675494	-0.056477144
173	0xbd5fec0d	-0.054668475
174	0x3dfe290f	0.12410175
175	0xbfbfddbf	-1.4989547
176	0x3f53bc33	0.82709044
177	0xbf3727cb	-0.71545094
178	0xbf32aaa8	-0.6979165
179	0x3e781561	0.24226905
180	0x3e69b651	0.22823454
181	0x3e4fe8c5	0.20303638
182	0x3ed6e064	0.4196807
183	0xbc99633c	-0.018724076
184	0x3efd670c	0.4949268
185	0x3bdb62cf	0.0066951285
186	0x3f07c4a6	0.53034437
187	0xbce354b3	-0.027750349
188	0x3d665294	0.056231096
189	0x3cafb056	0.021446388
190	0x3f04f1d3	0.51931494
191	0xbf13145c	-0.5745294
192	0x3e9e7624	0.3094951
193	0x3e121958	0.1426748
194	0x3eaa9c2f	0.33322284
195	0x3e32673b	0.17422192
196	0xbbf2bee5	-0.0074080103
197	0x3ed21243	0.41029558
198	0xbccba23f	-0.024857638
199	0x3e623047	0.22088729
200	0x3f5db78f	0.86608213
201	0xbd9b051b	-0.07569333
202	0x3d3d18ad	0.04616611
203	0x3dc74c50	0.09731352
204	0x3e0c0aa0	0.13675928
205	0xbf2ecdc4	-0.68282723
206	0x3eec0d21	0.46103767
207	0x3c4e4e41	0.012591899
208	0xc0054a63	-2.0826652
209	0x3edf5f81	0.4362755
210	0x3d98384d	0.074326135
211	0x3e016312	0.12635449
212	0xbf85df4f	-1.0458773
213	0x3dee7b4a	0.11644609
214	0xc03cb02f	-2.9482534
215	0xbd9d2b8c	-0.076743215
216	0xbce619e4	-0.028088517
217	0x3ed2da27	0.41182062
218	0x3efd259c	0.49442756
219	0xbf2709bd	-0.65249234
220	0x3f110d3f	0.56660837
221	0xbd618d91	-0.05506665
222	0xbd0d1eba	-0.03445313
223	0xbd3e61ea	-0.046480097
224	0xbd520f11	-0.0512839
225	0xbcf4cc54	-0.029882587
226	0xbd39a9a0	-0.045327783
227	0xbd2170e4	-0.0394143
228	0x3dc19342	0.09451915
229	0xbccf9410	-0.025339156
230	0x3ede351d	0.43399897
231	0x3f0471f5	0.51736385
232	0x3dffe116	0.124941036
233	0xbd8d78ad	-0.06907783
234	0xbdc8f8d9	-0.09813089
235	0xbf1a6b0b	-0.60319585
236	0x3e793f9f	0.24340676
237	0x3eef2d57	0.4671428
238	0xbd7669f7	-0.06015965
239	0xbcc4b924	-0.024014063
240	0x3ebafc1f	0.36520478
241	0xbcbc4f9e	-0.022987183
242	0x3e388fbe	0.18023583
243	0x3f47aed1	0.78001124
244	0x3d039867	0.032127764
245	0xbc337558	-0.01095327
246	0x3d5292aa	0.0514094
247	0x3f458f15	0.7717145
248	0x3e79b3af	0.2438495
249	0x3f018a8d	0.50602037
250	0xbd8b2759	-0.06794614
251	0x3e6c9776	0.23104653
252	0x3ea88eff	0.32921597
253	0x3ee05e4c	0.43821943
254	0x3eff2db4	0.49839556
255	0x3e61f0e7	0.22064553

net.4.bias f4 [2]
0	0x3bdf87ac	0.0068215933
1	0x3db7f58b	0.089823805
